nc: 80
scales:
  n: [0.50, 0.25, 1024]
  s: [0.50, 0.50, 1024]
  m: [0.50, 1.00, 512]
  l: [1.00, 1.00, 512]
  x: [1.00, 1.50, 512]

backbone:
  - [-1, 1, Conv, [64, 3, 2]]           # 0
  - [-1, 1, Conv, [128, 3, 2]]          # 1
  - [-1, 2, C3k2, [256, False, 0.25]]   # 2
  - [-1, 1, Conv, [256, 3, 2]]          # 3
  - [-1, 2, C3k2, [512, False, 0.25]]   # 4
  - [-1, 1, Conv, [512, 3, 2]]          # 5
  - [-1, 2, C3k2, [512, True]]          # 6
  - [-1, 1, Conv, [1024, 3, 2]]         # 7
  - [-1, 2, C3k2, [1024, True]]         # 8
  - [-1, 1, SPPF, [1024, 5]]            # 9
  - [-1, 2, C2PSA, [1024]]              # 10

head:
  - [8, 1, SFEContextGuide, [1024]]     # 11
  - [6, 1, SFEContextGuide, [512]]      # 12
  - [4, 1, SFEContextGuide, [512]]      # 13

  - [10,1, nn.Upsample, [None, 2, 'nearest']]  # 14 (P5 upsample)
  - [[-1,8],1, Concat, [1]]                    # 15 (Concat)
  - [15, 1, C3k2, [1024, False]]         #16

  - [-1, 1, nn.Upsample, [None, 2, 'nearest']] #17
  - [[-1, 4],1, Concat, [1]]   #18
  - [17, 1, C3k2, [512, False]]


  - [-1, 1, nn.Upsample, [None, 2, 'nearest']]  # 18

  - [-1, 1, Conv, [128, 3, 2]]                 # 20 (Downsample)
  - [[-1, 17], 1, SCG, []]                      # 21 (Local: Down, Guide: Node 17)

  - [-1, 1, Conv, [256, 3, 2]]                 # 22 (Downsample)
  - [[-1, 12], 1, SCG, []]                      # 23 (Local: Down, Guide: 原生 P5)

  - [[19, 21, 23], 1, Detect, [nc]]            # Detect(P3, P4, P5)